model/ferplus_model_pd_best.tflite (tflite, 691988 bytes, 34 tensors)

sequential/separable_conv2d/separable_conv2d/depthwise1 f4 [1, 3, 3, 1]
00000000: 0d04 6b3f 8b6c 303e 453a 3cbc 85d7 36c0
00000010: 659d c43e 661b 883d bda4 01be 855d 093e
00000020: d4dc bbbc
0.91803056 0.17228906 -0.011488502 -2.8569043 0.38401332 0.06645851 -0.12660499 0.13414581
-0.022932447

sequential/separable_conv2d/separable_conv2d f4 [48, 1, 1, 1]
00000000: 9e76 3cbf 0c15 7bbf 21d0 23be ea84 3ba7
00000010: 8aad 1ec0 997b 0940 4a93 55c0 3ee8 4040
00000020: c79c 6fbe 7d6e 3840 bf0a b428 854b 37c0
00000030: bae2 2840 8e26 15be 1431 3940 dc67 d2bf
00000040: 8f94 0c24 0bbd c0bf e7c7 4b40 1b86 88bf
00000050: 35de 003c 0982 eebd 45e3 6d30 6d30 02a1
00000060: 0cbe d13f d7d5 15c0 f5f6 3040 7582 d8af
00000070: 4404 c4bf ae55 2f3d 7003 7dc0 0a94 903f
00000080: 7367 c1bf 21d8 4d40 c75c 1d40 e1e0 5740
00000090: 3d05 0f40 091d 822e 8d54 7c20 690e 0faf
000000a0: 1127 5039 9cdf 99ac dde1 04c0 1400 f734
000000b0: 6d68 2e40 5041 0cbf 73fc c3bf 90fd c43f
-0.73618495 -0.9807899 -0.15997364 -2.6023516e-15 -2.479342 2.1481688 -3.3371148 3.014175
-0.2339965 2.8817437 1.9988675e-14 -2.8639843 2.6388383 -0.14565489 2.8936205 -1.6437945
3.0483495e-17 -1.5057691 3.184076 -1.0665926 0.007865478 -0.11645896 8.6543067e-10 -4.4109804e-19
1.6386123 -2.3411767 2.765073 -3.9382866e-10 -1.5313802 0.04280632 -3.9533348 1.1295178
-1.5109695 3.2163165 2.4587877 3.3731005 2.2346947 5.916873e-11 2.1373206e-19 -1.3010894e-10
0.00019850979 -4.373347e-12 -2.0762856 4.6007392e-07 2.7251236 -0.5478716 -1.5311416 1.5389881

sequential/separable_conv2d_1/separable_conv2d/depthwise f4 [1, 3, 3, 48]
00000000: 7afb 90be b453 58bd 36f9 b8bd ed5d 94be
00000010: 615e 113f b4c6 b4be a546 9fbd 0b3c abbf
00000020: 52e0 8c3e ef70 b8bd 51ad 273e 9d11 8bbe
00000030: a290 ad3e d0e3 643f f9a4 c23d ce82 8ebe
00000040: d6ca 77bd 22b4 59bc e0ad 463d 6ffd 3e3d
00000050: f691 31be 7547 413e 5ba1 a83f f490 febd
00000060: f3b4 463d 8b8b 6e3f 6375 823d 1713 bebe
00000070: efb0 f5be 8e78 053e 47ae c03e 9654 5bbe
00000080: 8595 aabc 5957 623f a27d 2dbf bb67 f3bf
00000090: 52e0 563e c011 823e 985a 8d3d 961c ebbd
000000a0: 3542 8ebd 77d8 77be 5f10 c2bd 0523 f73e
000000b0: 0299 08bf fdae aebe 9dc1 003f b97d 313f
000000c0: fcb7 e03f e8ef 0d3e 76ee b6be c828 753d
000000d0: e98e 66bf 9b1a bc3e d780 053e a061 5abf
000000e0: 6859 9cbe 7213 e33e 48b9 3dbe 45d1 68bf
000000f0: bf97 07be 8427 6cbf 2cdc 873e 2029 9cbd
00000100: 69d0 3c3d f3cc 04bf a916 6f3f 6930 d6be
00000110: e1ae b4be 6a03 34bd 17dd 1240 b398 ef3d
00000120: d754 2cbe 2f4d 003e 7071 8abe 0277 02be
00000130: d01b 0fbf 0b35 bbbd 8e98 253d 0fd3 20be
00000140: 0bee 8f3e bb81 6cbe 35c7 ef3d c2bc 56be
00000150: 9eb5 4e3e cc55 80be b308 c9bd 7414 983d
00000160: 58be 4cbf 0c3a 5abf 02d2 43bf 0563 34bf
00000170: 4eb4 fcbe b2f6 fe3e dc32 1c3f cb73 cc3e
00000180: 7b2e ef3f 13c9 a2be 5b1a 863e 8712 253f
00000190: 005a 14be 42d3 803e 2150 6cbe 458a c7bf
000001a0: 5abd ae3e f75c 22bf e82d 1ebe 3a8f 1cbf
000001b0: caa9 63bf a58d 3cbe 3bf8 883f 4564 5fbe
000001c0: 48b5 913b 4c20 d0be e550 0f3d efb5 8ebe
000001d0: 74ad 9d3e 5f6f 8fbe c880 3e40 3fed 0e3d
000001e0: 6cef 58bf 46c6 97bf b0df e7be 2b16 253f
000001f0: d56e 2cbf 1403 37be b5dc adbe 9c04 073e
00000200: 616b b33e f03c 1abd 32d1 98be 33ee 073f
00000210: 2cd3 b43e f87e bebe 7e1a b33d 872a f1bc
00000220: cd6d 4dbf a7b1 5dbf 1c5d 893e 5f18 f6be
00000230: d77a f33e 046b 883c 400c 1d3f 803b 64be
00000240: 9902 69c0 0fbd 5dbf fd4e aebe 80bb 23bf
00000250: 7b93 86bf 181f 303f 7e00 9fbc 4d0f edbf
00000260: a45f 12be d91e 7c3f 6827 133f ff26 f63d
00000270: cd7f 483f 134d e93f 150e 36bf d9fc eabe
00000280: a570 a13d 604b ef3e c4d3 353e 6456 ccbe
00000290: db8a d7be 45cb 413f ded3 22c0 b432 c3bc
000002a0: 3dfe 9bbd 8074 aabe e5ba 723d 7ff0 033e
000002b0: 25a8 b7bb b6d6 f33d 2619 ce3f 401e 3ebe
000002c0: 56b7 16bf 39ed c73e 4ceb a3be adc5 bcbf
000002d0: ef92 15bf 7113 243f 295a 25bb 0f7e 833d
000002e0: 22eb b4bd 8daa 123f fb6e 4cbf 37d4 ba3f
000002f0: 9164 92bf d8a6 513f 6b0d 5e3f 42b0 013f
00000300: fabf cabf 3bc7 003f 53ac 883e 2450 8abc
00000310: 946e 3dbf efaf 9dbf d8aa ff3f ab90 72bf
00000320: 22cf 8c3b 81d5 e93e 08ac af3d 7faf 85bf
00000330: 583b 6ebf 7c47 6ebf 6514 32bf 7064 4f3e
00000340: a1f9 6f3b cc52 edbd fa2c cd3f 13a8 07bf
00000350: 10d6 833f 33a1 043e 57d5 22c0 4e0c 5b3c
00000360: d05b a4be b970 843f c4d7 843f ff46 5dbd
00000370: 0198 1f3d 463f 76be 62a2 61bf 54d6 85be
00000380: 2a52 74bf 4b89 01c0 395c 1c3f 42cf f93d
00000390: 3740 f6bf e7e1 ce3c 7e8b 0e3e 2b61 723e
000003a0: d673 613f ea56 98bf 2644 493f 1fe0 e83d
000003b0: c3d1 c0be d796 3a3f ae8a c6be af13 cbbf
000003c0: 76c7 133e 5517 29be 74a3 383e 8e56 e83e
000003d0: 2e78 923f 240e 853e 9981 34be 83b8 23c0
000003e0: 1478 903e c45c 2cbf 42c8 09be acfa 82be
000003f0: 04bc 46bf 74d2 033f a76f 1b3f ac15 59bf
-0.2831686 -0.0528142 -0.09031908 -0.2897791 0.56784636 -0.35307848 -0.07777146 -1.3377699
0.27514893 -0.090059154 0.16374709 -0.27161875 0.3389941 0.89410114 0.09504122 -0.2783417
-0.060496174 -0.013287576 0.048505664 0.04662841 -0.17340836 0.18874915 1.3174242 -0.12429991
0.04851241 0.93181676 0.06370046 -0.3712394 -0.47986552 0.13034269 0.37632963 -0.21418986
-0.02082325 0.8841453 -0.67769825 -1.9016031 0.20984009 0.25404167 0.06902045 -0.11480062
-0.06946222 -0.24203669 -0.09475779 0.48268905 -0.5335847 -0.3411788 0.5029543 0.6933246
1.7556148 0.13861048 -0.35728806 0.059853345 -0.90061814 0.36739048 0.1303743 -0.85305214
-0.30536962 0.44350773 -0.1852771 -0.9094432 -0.1324148 -0.92247796 0.26535165 -0.076250315
0.046097193 -0.5187523 0.9339395 -0.4183381 -0.35289672 -0.04394857 2.2947443 0.11699047
-0.16829239 0.12529443 -0.2703967 -0.1274071 -0.55901814 -0.091409765 0.04042869 -0.15705512
0.281113 -0.23096363 0.117079176 -0.20970443 0.20186469 -0.25065458 -0.09816112 0.07425776
-0.7997794 -0.8524482 -0.7649232 -0.7046359 -0.49356312 0.4979759 0.61015105 0.39932093
1.868606 -0.31794032 0.26191983 0.64481395 -0.14487457 0.25161177 -0.23077442 -1.5589072
0.3412884 -0.63423103 -0.154472 -0.61156046 -0.8893095 -0.18413408 1.0700754 -0.21815594
0.0044466592 -0.4064964 0.034989256 -0.2787318 0.30796397 -0.28014657 2.9766102 0.034894224
-0.8474033 -1.1857383 -0.45287848 0.6448695 -0.67356616 -0.17872268 -0.3395745 0.13185352
0.3504286 -0.03765577 -0.29847103 0.5309784 0.3531736 -0.37206244 0.08745287 -0.029439224
-0.8024567 -0.865992 0.2682885 -0.4806547 0.47554657 0.016652592 0.61346817 -0.22288322
-3.6407835 -0.86616606 -0.34044638 -0.6395798 -1.0513757 0.68797445 -0.019409414 -1.8520294
-0.14294297 0.9848457 0.57482004 0.12019157 0.7832001 1.8226646 -0.7111524 -0.45896032
0.07882813 0.46737194 0.17756563 -0.3990966 -0.42098126 0.7570079 -2.5441813 -0.023827888
-0.076168515 -0.33292007 0.059260268 0.1288471 -0.005604761 0.11906187 1.6101425 -0.18566227
-0.588735 0.39048174 -0.32015455 -1.4747826 -0.5842733 0.64092165 -0.0025230742 0.06420528
-0.088339105 0.5729149 -0.7985684 1.4596013 -1.143694 0.8189521 0.86739224 0.50659573
-1.5839837 0.50304 0.26693973 -0.016883917 -0.73996854 -1.2319316 1.9974012 -0.94751996
0.004297153 0.45670703 0.08577734 -1.0444182 -0.930593 -0.93077826 -0.6956237 0.20253158
0.0036617296 -0.11588058 1.6029351 -0.52990836 1.0299702 0.12952118 -2.5442712 0.013369633
-0.32101297 1.03469 1.0378346 -0.054022785 0.03896332 -0.24047574 -0.881384 -0.26140082
-0.9543787 -2.0240047 0.6107822 0.121977344 -1.9238347 0.025254203 0.139204 0.23669879
0.88067377 -1.1901524 0.7861961 0.11370873 -0.37660035 0.72886413 -0.3877768 -1.5865382
0.14431557 -0.16512807 0.18031102 0.45378536 1.1442926 0.2598735 -0.17627563 -2.5581367
0.28216612 -0.6732905 -0.13455299 -0.25581872 -0.7763064 0.51493 0.6071724 -0.84798694

sequential/separable_conv2d_1/separable_conv2d f4 [48, 1, 1, 48]
00000000: 097f 973e e52e 21bd 4e04 9abd 8bf4 bc3d
00000010: f135 d13e 7fbf 8a3d 43a7 85be c372 903e
00000020: b85d acbd 0a38 0f3e d618 1fbe 929f b03e
00000030: ae8f 3cbc 203e 803e 20c8 51be 43e3 c13d
00000040: 2cf8 373d c34c dcbc d552 673d 7ab1 103d
00000050: 44c7 183e 406d a2bd a48e 033d c7a9 f63c
00000060: d022 85bd 2dcc 2f3e 6f3c 6fbd 468a 8c3c
00000070: 7719 ad3e a3fc 7abb 34d4 6bbe 9e9a 0d3e
00000080: 2daf 4c3e fc15 6dbe f696 c83c bb4d 813e
00000090: 6472 51be d013 1fbe 8f1e 183d 20a5 b7bc
000000a0: 3464 aa3d 74e3 483e a0a4 02be 6542 5ebe
000000b0: 7f95 31be f5d0 83be 2c16 acbe aac3 543d
000000c0: aa0b 8d3e 6dc2 1dbe b7a2 b8bd 493a d8bc
000000d0: e6cb 7cbd d1f2 5bbe 3fb4 ab3e f37c d8be
000000e0: 8fa6 093e 1d2c e8bd 2513 f2bd 00d7 4a3d
000000f0: 1d79 44be d1a1 ab3d 0973 4bbe 9c17 3cbe
00000100: 0a97 63ba 0f90 6e3e 3040 cb3e 706e 273e
00000110: a959 1b3e c2e1 083e 6d3c 183e af7d 1a3d
00000120: bf91 a1bd 0235 ca3d 25ba 8c3e c81d 133e
00000130: baa8 69be c2a4 d63d 1231 793e fce5 293e
00000140: 0a69 eabd 33f5 63be 264c 63be 2549 09bd
00000150: 388c eabd 986b c6bc 2789 463d f1d3 17bc
00000160: d65b 9d3e 1b17 703e 1acc 283e aa5d 81bd
00000170: 5a95 8fbd 2463 e33c c503 56be 4955 a03c
00000180: 025c 273e 4864 383e db89 c43d 567f 243d
00000190: 35ed cf3d 169d c23d 1b4f bd3c bb6a 953d
000001a0: a0cc 863c 12aa efbc ef54 0a3b b890 0c3f
000001b0: 497d 1abe 5746 adbd 63d8 22bc e304 273e
000001c0: 505c 7abd 473c 2bbe 57c0 693e dab6 9cbb
000001d0: 6edc 53bc f220 7abd 333c 853e 948b c73c
000001e0: 8b1b 59be 820c 2f3e 82c9 28be 2ff9 943d
000001f0: dba4 0fbd 88b6 503d f4e7 a8bd db41 973d
00000200: bf81 77bd 8d45 5ebc 51cf d7bd 56c1 8abd
00000210: e668 1c3d 880c 30bc 117e d03c d9f5 c73c
00000220: 8891 c63d 0159 243e 790a 0fbd 5328 893a
00000230: ed7f ccbd 44bd 36bd 4867 b0be 3bec c03c
00000240: 4b0a ca3e 0273 853d 1a70 27bd 4898 643e
00000250: 0d41 023f c03e fdbd 6e79 c2bd b946 6d3e
00000260: 8dad 90bd 04fd 2dbe 2297 83bd 2158 563d
00000270: b2c3 273d 3c73 593f f02a d7bc 876f b4bd
00000280: 813f 7a3d 3fc5 bdbc befc bb3e ad8d 053e
00000290: fb1d 3c3e 6fbe aabd f904 993d 50f0 fa3c
000002a0: ba1f 9a3d 1ada 143d bf3f 49be 97cc 623d
000002b0: 065f 2c3b daec f13d 70ac b13e 22c1 553e
000002c0: bf5d 7f3e 8360 a6be 4268 d53e e80a 053f
000002d0: ed43 55be 9bab ddbd 960d 253d 5c7b 9dbe
000002e0: 4e74 85be 224c a03d 9cab f63e 7a9d 92be
000002f0: 9fc8 513d a05e c4be d8ca 213e 0e10 963e
00000300: c3c9 e83e 5033 3f3e 7de4 ab3d 130c a43d
00000310: bf73 4e3e f4c4 f7bc 1b2d 86be ce47 893e
00000320: 7841 4abe 0209 2b3e 0a40 a5bd 7fdf 2a3c
00000330: e235 963c bc06 c13e 65ad f6bd 8655 3e3e
00000340: 543c bb3d 3468 36be c087 813e 4035 0f3e
00000350: 80b5 693d 54d5 28be 4fd0 0c3f 603d 663c
00000360: 0ef1 0bbc 7afe 39be 8165 543e da67 9e3d
00000370: 0496 27be 4af8 fd3c f9c5 57be 0451 863d
00000380: 5760 853e ed90 88be 445d 713e 136c aebe
00000390: e943 d1be 53a5 5cbd 9bf0 5fbd 8906 0dbd
000003a0: 5137 68be 30ca e7be 8bef a0bd df57 4cbe
000003b0: 1948 3ebe f84d 03be f2a8 e8bc 2f48 df3d
000003c0: d2b7 363e 7775 7f3c e60f 7e3c 6fed 92b8
000003d0: e9cd c9bd 2119 bdbe 4ba6 fcbd 05d0 083f
000003e0: f09c bf3d ca25 16be cf11 b0bd 65a1 443d
000003f0: 8acb fabc 8851 ba3d 20a1 363d 4de0 55be
0.29589108 -0.039351363 -0.07520352 0.0922633 0.40861467 0.06774806 -0.26104173 0.28212556
-0.08416313 0.13986221 -0.15536818 0.34496742 -0.011508865 0.25047398 -0.20486498 0.09467175
0.04491441 -0.026892072 0.05647548 0.035325505 0.14919764 -0.07930994 0.032118455 0.030110253
-0.065007806 0.1716773 -0.058407243 0.017155778 0.3380849 -0.0038297556 -0.23030168 0.13828513
0.199887 -0.23152918 0.024486046 0.25254616 -0.20453793 -0.15534902 0.037138518 -0.022417605
0.083198935 0.19618016 -0.12758112 -0.21705015 -0.17342184 -0.2574536 -0.33610666 0.051944412
0.2754796 -0.15406199 -0.090154104 -0.02639498 -0.06171789 -0.21479346 0.33535954 -0.4228283
0.13442443 -0.11336539 -0.11820058 0.049521446 -0.19186826 0.083804734 -0.19868101 -0.18368381
-0.00086818694 0.23297141 0.3969741 0.16350722 0.15170921 0.1336737 0.148668 0.037717517
-0.07889127 0.09873392 0.27485767 0.1436683 -0.2281827 0.10480644 0.24335125 0.16591638
-0.11445816 -0.22261505 -0.22197017 -0.03351702 -0.11452526 -0.024221227 0.048470642 -0.009266839
0.30734128 0.23446314 0.16484109 -0.06316693 -0.070109084 0.027757235 -0.20899875 0.019571917
0.16343692 0.18007004 0.09596606 0.0401605 0.101526655 0.09502618 0.02310901 0.07295748
0.016454995 -0.0292559 0.0021107753 0.54908323 -0.15086855 -0.08460682 -0.009939286 0.16310458
-0.061123192 -0.16722213 0.22827278 -0.00478254 -0.0129309725 -0.061066575 0.2602249 0.024358548
-0.21201913 0.17094615 -0.16483119 0.072740905 -0.035069328 0.050955325 -0.082473665 0.07385608
-0.06042647 -0.013566387 -0.10537589 -0.06775157 0.038185976 -0.010745175 0.025450738 0.024409221
0.09695727 0.16049577 -0.034922097 0.0010464288 -0.099853374 -0.04461409 -0.34453797 0.023550143
0.39460978 0.065160766 -0.040878393 0.22323716 0.5088051 -0.12365484 -0.09495817 0.2317151
-0.07064352 -0.16991049 -0.06425311 0.05233014 0.040958114 0.8494146 -0.026265591 -0.08810335
0.06109572 -0.023165343 0.36716264 0.13042326 0.18370812 -0.083371036 0.074716516 0.030632168
0.075255826 0.03634081 -0.19653223 0.055370893 0.0026301756 0.11812754 0.34701872 0.20874456
0.24938105 -0.32495508 0.41681105 0.51969767 -0.20826693 -0.10823747 0.04029616 -0.30758178
-0.26065296 0.07827021 0.48177803 -0.2863577 0.051216718 -0.38353443 0.15800035 0.29309124
0.45466432 0.18671918 0.0839319 0.080101155 0.20161341 -0.030245282 -0.26206288 0.26812595
-0.19751537 0.16702655 -0.08068855 0.010429262 0.01833624 0.3770045 -0.12044791 0.18587312
0.09142366 -0.17813188 0.25298882 0.13985157 0.057057858 -0.16487628 0.55005354 0.014052719
-0.008541359 -0.18163481 0.20741846 0.07734652 -0.1636582 0.031002183 -0.21071614 0.06558421
0.26050064 -0.2667307 0.23570734 -0.3406683 -0.40872124 -0.053868603 -0.05467282 -0.03443006
-0.22677352 -0.45271444 -0.07858189 -0.19955395 -0.1858219 -0.12822711 -0.028400872 0.1090244
0.1784356 0.015591971 0.01550672 -7.006048e-05 -0.09853727 -0.36933234 -0.12336405 0.5344241
0.09356105 -0.14662853 -0.08597147 0.04800548 -0.030614633 0.09097582 0.044587255 -0.20886345

sequential/separable_conv2d_2/separable_conv2d/depthwise f4 [1, 3, 3, 48]
00000000: e6c5 993e 3150 32bf 45eb 1fbf b25c 89be
00000010: fad9 0e3f a0ee 563e 29c8 6bbf 3bff 903e
00000020: 6eb1 983e faed 2abf 45e6 423e 4aba 563f
00000030: ef88 323e 0d4c 0e3f 54e4 b83e 4730 bcbd
00000040: a644 81bf a290 d1bd 806d aabf 16a6 e1be
00000050: 45cc a8be ba9a 0d3d 0a1e fa3e 105d 28bd
00000060: 92c8 d03e dc76 873f fc08 313e a47e c4be
00000070: 8c66 043f 067c 4f3f 5ef9 533e 73e2 4fbf
00000080: cc72 94bf 3be5 38be 5921 4cbf a235 a93e
00000090: 6e60 7bbf 7c12 17bf 779f b5be e8a0 a2be
000000a0: 030b ccbe bcc1 c03d 218d 0fbf 34a1 5e3f
000000b0: b544 3f3e 3f1b 833f 65b4 50bf 06d9 c3bf
000000c0: 21ae fa3e dacd 1bbf b06c 22bf 0902 b3be
000000d0: 1da1 f43e 4ca0 873e 068d 3cbe 9e3c 6e3f
000000e0: 5beb 37bf 48a4 c4be d67e 283f eca8 603f
000000f0: 4226 e03e 3d81 4e3f 3987 e8be 3de1 6e3e
00000100: 6a2c 1e3f 375c 533f f1d1 56bf cedc 20bf
00000110: e1d6 19be 3d96 49be 2bb3 e2be 333c 983e
00000120: dba5 8f3f 709b 4f3f 704d 48be 8285 58bd
00000130: be32 9b3f 7b25 5a3e b3c2 f4bd 736b 1dbf
00000140: 0545 5e3f bb76 23bf b8b9 4d3f cd03 9b3f
00000150: db29 60bf 84a7 0abf 9889 ab3f a851 5fbe
00000160: 4f6a 92bf dfc6 803f 7c73 a4be dde9 4d3e
00000170: f130 8d3e 17ff 8a3f 61ee 65bf 98bc 8cbf
00000180: 6ddb c53d 34cc 3abf 9e3e 37bf 2386 763e
00000190: 1d4a 0abf cbb7 033f 6980 b33c 6f35 b03f
000001a0: 9208 07bf 5528 1bbe 3420 5abe 50d1 b63f
000001b0: 65a9 89bf 8403 2cbe 4614 1ebe 1c7e 543d
000001c0: 2dcd 623e 56bb b5bd d228 393e 1e27 ac3e
000001d0: cf05 2cbf f015 d3bf b5bf 85bf 6ace 8d3c
000001e0: 17c6 2d3f 6770 ee3e fa03 713e 86b3 b73e
000001f0: 61e9 1d3f 72a6 b63e 2c74 e03e a366 56bf
00000200: 754b a73e acdd afbe 1aa2 813e aa4d 8b3e
00000210: cc75 23bf 0daf 0dbf e0ee 8a3f 3e21 3f3f
00000220: 8bb9 013f cd71 163f a05d a03d ca99 29bf
00000230: 5d05 443e a37f 91bd 1db5 4bbd 0217 5bbf
00000240: 6fc1 023f 7a21 403e 046b 8cbf 9cc8 ff3e
00000250: fcf9 1fbe 2a5f 373f 1369 11bf d240 3dbf
00000260: 6c56 e33e 12df 1cbf 5a88 9f3f ca40 0b3f
00000270: e79e fc3e a080 9d3f 4508 973f ca22 08bf
00000280: 9456 853f cdf0 5fbf 5f0a 7fbe 9716 86bf
00000290: e107 823e 74d6 91bd 3b89 583f 258e 89bf
000002a0: c789 153f 3aa5 7cbd a467 8ebf 7d5d 373f
000002b0: f6b6 86bf 84d6 86bd c2ff 8e3f 9da5 0c3d
000002c0: dc12 9fbf 6e46 163e 61ad 59bf 3df3 d43e
000002d0: ced0 a5bf 85cb 673f 9e87 c3be 1a35 4fbf
000002e0: 230f debe 1cdc ebbe acce 85bf 3a1d 90be
000002f0: 937f 5b3f a0e0 763d 613c 493f 3773 babe
00000300: f7ce ea3e 7c8b 273d fc5b 8bbf 0244 afbf
00000310: 88d1 a8bf ca81 54bf e4fe 97bf fcba 943b
00000320: 9fca e6bf 21ec 1dbf 7a55 f8bb 4126 0c3f
00000330: e48d 6f3f 8934 553f 057e 9abe 6912 97bf
00000340: df6c fe3e d786 6cbf d7b9 d8be 0cfc f5be
00000350: 8273 e0bd e357 41bf 94a8 fcbe 35fb 193e
00000360: 44c7 4c3f a396 893e e11c 133f 320e 05c0
00000370: 9317 f0bf e3e0 b4bc dac6 bfbe 4aec 1bbf
00000380: 886d b33f 4b08 573e d3e5 903f 1158 6c3e
00000390: f97b 87bf 5c73 e33e ecba 99bf 906a 7ebf
000003a0: c503 cbbf 805b 703f 9d8b 353f 486d fc3e
000003b0: 6154 943f bee0 733f 05f6 f03f 137b efbe
000003c0: 44d8 0e3f 15d8 213f 74cc dd3d b65a 623f
000003d0: 6f03 99be 27c0 703f 838b 41bd 3af5 313f
000003e0: 4b0a 08bf 7318 dfbe ed76 abbf 5c51 423e
000003f0: 738c d5bf 537c b93e 4263 76bf 0513 33bf
0.30033797 -0.6965361 -0.6246837 -0.26828533 0.55801356 0.20989466 -0.92102295 0.28319725
0.29822868 -0.66769373 0.19033153 0.83878005 0.17435049 0.55584794 0.361117 -0.09188896
-1.0099075 -0.10232665 -1.3314667 -0.44072026 -0.32968345 0.034571387 0.48851043 -0.041104376
0.40778023 1.0583148 0.17288584 -0.3837787 0.51718974 0.8104862 0.20700595 -0.8120491
-1.1597533 -0.18056194 -0.79738384 0.3304873 -0.98194015 -0.5901258 -0.35473225 -0.31763387
-0.3985215 0.09411952 -0.5607472 0.86964726 0.18678553 1.024269 -0.8152526 -1.5300605
0.48960975 -0.6086098 -0.63447094 -0.3496249 0.4777917 0.26489484 -0.18413171 0.93061244
-0.718435 -0.38406587 0.65818536 0.87757754 0.43779188 0.8066595 -0.45415667 0.23328109
0.6178652 0.82562584 -0.83914095 -0.6283692 -0.15023376 -0.19686218 -0.4427732 0.29733428
1.122249 0.81096554 -0.1956079 -0.052861698 1.212486 0.2130336 -0.119511984 -0.6149208
0.86824065 -0.63853043 0.8036151 1.2110535 -0.87563866 -0.5416186 1.3401365 -0.21808493
-1.1438693 1.0060691 -0.32119358 0.20108743 0.27576402 1.0859097 -0.8981686 -1.0995054
0.09660993 -0.7296784 -0.7157992 0.24074607 -0.5401934 0.5145232 0.021911817 1.3766307
-0.5274745 -0.15152104 -0.21301347 1.4282627 -1.075482 -0.16798216 -0.15437421 0.05187808
0.22148581 -0.08873622 0.18081978 0.33623594 -0.67196363 -1.649107 -1.0449129 0.01731034
0.67880386 0.4657013 0.23536673 0.35879153 0.6168423 0.35673863 0.43838632 -0.8375036
0.32674757 -0.3434881 0.25318986 0.2720769 -0.6385162 -0.5534523 1.0854149 0.746601
0.5067374 0.58767396 0.078303576 -0.6625029 0.19142671 -0.07104423 -0.04973327 -0.8558198
0.51076406 0.1876277 -1.0970159 0.4995774 -0.15622705 0.71629584 -0.56800956 -0.7392703
0.44401872 -0.6127788 1.2463486 0.54395735 0.49339983 1.2304878 1.1799399 -0.53178084
1.0417047 -0.8747681 -0.249063 -1.0475644 0.25396636 -0.07120982 0.845844 -1.0746504
0.58413357 -0.06168101 -1.1125379 0.71627027 -1.0524585 -0.06583884 1.1171801 0.03433763
-1.242763 0.14675304 -0.8503018 0.41591826 -1.2954347 0.9054492 -0.38189405 -0.809404
-0.43370923 -0.46066368 -1.0453696 -0.28147298 0.8574154 0.060272813 0.78607756 -0.36416027
0.45861027 0.040904507 -1.0887446 -1.3692629 -1.3188944 -0.8301054 -1.1874661 0.004538892
-1.8030585 -0.6168843 -0.007578549 0.5474587 0.9357588 0.8328329 -0.3017427 -1.1802493
0.49692437 -0.9239325 -0.42329285 -0.4804386 -0.10959531 -0.7552473 -0.49347365 0.15037234
0.79991555 0.2687274 0.5746594 -2.0789914 -1.8757194 -0.02207989 -0.374564 -0.60907423
1.4017801 0.20999257 1.1320137 0.2308047 -1.0584708 0.4442395 -1.2010169 -0.9938135
-1.5860525 0.9388962 0.7091616 0.49302125 1.158825 0.95264804 1.8825079 -0.46773586
0.55798745 0.6322034 0.10830012 0.88419664 -0.29885432 0.940432 -0.04725219 0.6951481
-0.53140706 -0.4357334 -1.3395668 0.18976349 -1.6683487 0.36227664 -0.96245205 -0.69950897

sequential/separable_conv2d_2/separable_conv2d f4 [48, 1, 1, 48]
00000000: df45 ac3d 0bb0 d73d 211a 76bd 4d65 0f3d
00000010: 719d f53c 0b45 5f3c 2daf 60bd 41d0 a2bd
00000020: 7bea f53d c7b8 ae3d 9a6c 2bbd 5a21 7dbd
00000030: 787b 393d f2ed 033d 23fe 18bc 5c0b 22bd
00000040: beb4 18bc a192 95ba 9a4e be3d e6a5 abbc
00000050: 0dfb e03c bc96 19bd ca88 82bc fdb6 d43c
00000060: 0798 d2bd 1fe0 77bd 25f6 553d bb96 78bd
00000070: 61e4 9abc 139b b7bc 59d9 893b 122e ff3d
00000080: 5c38 55bd d7b5 11be 8bcd e83c 5b3b efbd
00000090: 70fe 01bd 3314 973b 6390 5eba c968 393d
000000a0: 2576 c93d 0940 e1bb 25bf 74bc 2e43 00bd
000000b0: 9cf7 1b3d 543c 69bd 3c71 6abc 2e61 5c3d
000000c0: 635a 59be 64fd b63b c88b ef3d 61ea 1ebd
000000d0: f118 d83c 1880 893d 9b93 ab3d e4fc d53d
000000e0: 78b4 223d fc3b 3f3d 85b5 953c 52f4 cd3d
000000f0: 27af ab3d ed79 6cbd c424 bebd ab05 823d
00000100: 0ebb 98bc 2b76 ae3a 6a28 9fbd 79ce 1d3d
00000110: 5bad 59bd e517 2ebd 53ab 3d3c a8f0 bc3d
00000120: d869 483c e6b9 25bd 61f6 7cbd fc0c 98bd
00000130: 6c0d 77bd 0690 0ebd 9e24 8c3c b8a6 36bd
00000140: 335c efbc 7455 233d 9c08 753c c88a e53c
00000150: a4ac a0bc 009f c7bc ae3c 213c 4cde fc3d
00000160: fa8a 9d3c ef58 02be 469d 02bd e9d2 c8bd
00000170: 5cb5 143c b6c8 973c 2e34 93bc cf0a 5abd
00000180: 5bd8 d4bc 4a67 dd3b 5f34 35bb 1174 673d
00000190: 5449 1d3d 7d02 343d 0fb5 ff3c 5747 e9bb
000001a0: c449 f33c 12be 833d 1c4a 063d 3b13 cb3d
000001b0: 0e6c 3bbd c9ae c3bd 8487 afbd 6c03 86bd
000001c0: cb13 bdbc b1f2 ae3c 650c d1bc 36c2 11bc
000001d0: 55eb d33d 5c0c 913d 2cd6 a6bd 6241 7a3d
000001e0: fa82 a4bd ad68 04bc aad3 293b d79e b93b
000001f0: 84d3 acbc 7f4e 49bd 891e 92bb 3175 b83c
00000200: f61b 453d 063e 22bd 1659 323c 50b5 afbd
00000210: b09c c53b 8721 ac3d 3fc1 8cbd 6659 01be
00000220: 5f9b ddbb 6aaf abbc a282 98bd 272d e4bd
00000230: c203 713d f59d 7c3c 85f9 14b9 de88 05bd
00000240: 31d8 07bd d72b 953d e6f0 b53b de44 2d3e
00000250: f83d 96bd 1548 5f3d ea60 02bd 654a 33bb
00000260: ae7d b43c 33c0 17bb ac9f 09bb 1257 15bd
00000270: 65e4 e43d 716c 0b3d 836b 30bd 78cb be3c
00000280: e13f d43a 01ba 93bc 6534 2a3e da23 0ebd
00000290: 2054 4a3d baca 9dba 8369 35bd 30f8 d23d
000002a0: 619b 0d3d 5ca2 e33c 9a00 b4bd 0a01 b1bc
000002b0: 7f4b 8c3b 3173 62bd 3385 c9bd 5828 a93c
000002c0: 1f15 4ebd 7a98 3fbd b3ed b9bc 9306 7dbd
000002d0: 956e c53c eabf 333d 1a1e 243d 9231 203e
000002e0: 4f17 e73c 8e7b b1bd 0f3f eb3d a4c4 31bd
000002f0: a465 20bb e413 863b 2d05 ae3b d436 953d
00000300: fbaf dabb a06d d13c 1882 a83d 536d 873c
00000310: 5ba0 893d 2d9b 08bd ffb5 7c3d f710 60bd
00000320: 11f8 683b 095b 123b 874c b5bc d59e 99ba
00000330: fccf 053d 94f8 373d 9187 703c 0820 2dbc
00000340: e914 a7bd 0863 f53c 8479 e2bc 363b 3dbc
00000350: 4cc0 a03d d3f1 a73d bc6a 52bd 9a8e 9dbc
00000360: 2c69 a9bc e802 2abe d29a b53c 9dea a4bc
00000370: f077 f63d f96d 11bd 71cf d8bc 557c 3dbd
00000380: 2597 4537 1134 e4bd 71ee c53b de26 923d
00000390: 7ba6 06bc 30b8 0dbe cdde f13d 495a 623c
000003a0: 8c02 bf3d 00f7 29bd 0e15 c43c 9c1d 933b
000003b0: 57f8 013b fdc5 3b3c 49a2 383d 057f 673d
000003c0: b0c9 a7bc 582d 82bc 1abf 163e 3f80 4e3c
000003d0: 6fa1 3d3e c820 b3bc df8b 423c 70c5 92bd
000003e0: 953e 223e 2981 8a3d 63b4 0bbc 821b b83c
000003f0: 9c3b 353c fb78 433d 594c 5a3d b36d 303e
0.08411764 0.105316244 -0.060083512 0.035008717 0.0299823 0.013627301 -0.05485456 -0.079498775
0.12007614 0.08531337 -0.041851617 -0.061799385 0.045283765 0.032209344 -0.009337935 -0.039561614
-0.009320436 -0.0011411497 0.09292336 -0.02095313 0.02746346 -0.037497267 -0.015934367 0.025966162
-0.10282903 -0.060516473 0.052236695 -0.060690623 -0.018907728 -0.022412812 0.004206818 0.12459959
-0.0520557 -0.14229523 0.028418323 -0.11681243 -0.03173679 0.004610562 -0.0008490143 0.045265947
0.098369874 -0.0068740887 -0.0149381505 -0.031314068 0.038077936 -0.0569423 -0.014309224 0.053803615
-0.21225886 0.0055844057 0.11696583 -0.03879774 0.02637908 0.06713885 0.08377763 0.10448626
0.03972289 0.046688065 0.018275032 0.10056366 0.08383017 -0.057733465 -0.09284356 0.06348737
-0.018643882 0.0013310363 -0.0777138 0.038526986 -0.05314384 -0.042503256 0.011576491 0.09225589
0.012232266 -0.04046049 -0.061758403 -0.074243516 -0.060315534 -0.03480532 0.017107304 -0.04459259
-0.029218769 0.039876416 0.014955666 0.028020278 -0.019613571 -0.02436781 0.009841127 0.12347087
0.019231308 -0.12729238 -0.03188827 -0.09805853 0.009076443 0.018528324 -0.017969217 -0.053232964
-0.025982073 0.006756698 -0.0027649624 0.056507174 0.03840001 0.043947686 0.031214265 -0.0071191
0.02969826 0.064327374 0.03278552 0.09915777 -0.045757346 -0.09554822 -0.085707694 -0.065436214
-0.023080727 0.021355959 -0.025518605 -0.008896401 0.103476204 0.070824355 -0.08146319 0.06109751
-0.08032794 -0.008081597 0.0025913515 0.005664687 -0.021096952 -0.049147125 -0.0044592065 0.022516819
0.04812237 -0.03960993 0.010885498 -0.085795045 0.0060306415 0.08404832 -0.06872796 -0.12631759
-0.0067629064 -0.020957667 -0.07446791 -0.111414246 0.058841474 0.015418519 -0.00014207333 -0.03260123
-0.03316516 0.072837524 0.005552399 0.16920802 -0.07336038 0.054512102 -0.031830706 -0.0027357575
0.022032585 -0.002315533 -0.0020999713 -0.03645999 0.11176375 0.034038965 -0.04307128 0.02329038
0.0016193354 -0.01803303 0.1662155 -0.03470216 0.049396634 -0.0012038567 -0.044290077 0.10301244
0.03457201 0.02778738 -0.08789177 -0.02160694 0.004281461 -0.055285636 -0.09839859 0.02064912
-0.05031311 -0.046776272 -0.022696352 -0.061773848 0.024100581 0.043884195 0.04006777 0.1564391
0.028209357 -0.08666144 0.11486637 -0.04340042 -0.0024474645 0.0040917266 0.0053106756 0.07285848
-0.0066738105 0.025564969 0.082279384 0.016531622 0.067200385 -0.033351112 0.061697003 -0.05470368
0.003554825 0.0022332093 -0.022131218 -0.0011720309 0.032669052 0.044914797 0.014680759 -0.010566719
-0.08158285 0.029954448 -0.027645834 -0.0115497615 0.07849178 0.08200421 -0.05137132 -0.019233037
-0.020680033 -0.16602671 0.02216855 -0.020131404 0.12034595 -0.03550527 -0.026466103 -0.04626115
1.1777306e-05 -0.111427434 0.0060403873 0.071363196 -0.008218403 -0.13839793 0.11810074 0.013815471
0.09326658 -0.041495323 0.02393582 0.0044896137 0.001983186 0.011460778 0.045076642 0.05651762
-0.020481914 -0.015890762 0.14721337 0.012603818 0.18518613 -0.021866217 0.011874168 -0.071665645
0.15844186 0.067629166 -0.008526894 0.022474054 0.011061575 0.047722798 0.053295467 0.17229347

sequential/separable_conv2d_3/separable_conv2d/depthwise f4 [48]
00000000: 0000 0000 0000 0000 0000 0000 0000 0000
00000010: 0000 0000 0000 0000 0000 0000 0000 0000
00000020: 0000 0000 0000 0000 0000 0000 0000 0000
00000030: 0000 0000 0000 0000 0000 0000 0000 0000
00000040: 0000 0000 0000 0000 0000 0000 0000 0000
00000050: 0000 0000 0000 0000 0000 0000 0000 0000
00000060: 0000 0000 0000 0000 0000 0000 0000 0000
00000070: 0000 0000 0000 0000 0000 0000 0000 0000
00000080: 0000 0000 0000 0000 0000 0000 0000 0000
00000090: 0000 0000 0000 0000 0000 0000 0000 0000
000000a0: 0000 0000 0000 0000 0000 0000 0000 0000
000000b0: 0000 0000 0000 0000 0000 0000 0000 0000
0.0 0.0 0.0 0.0 0.0 0.0 0.0 0.0
0.0 0.0 0.0 0.0 0.0 0.0 0.0 0.0
0.0 0.0 0.0 0.0 0.0 0.0 0.0 0.0
0.0 0.0 0.0 0.0 0.0 0.0 0.0 0.0
0.0 0.0 0.0 0.0 0.0 0.0 0.0 0.0
0.0 0.0 0.0 0.0 0.0 0.0 0.0 0.0

sequential/separable_conv2d_3/separable_conv2d/depthwise1 f4 [1, 3, 3, 48]
00000000: 5061 84bd 22d8 363f fa1d 22bf 592b 56bf
00000010: 3b59 a1be 39f4 70bf 0f41 9fbe 6a36 f4bd
00000020: e7b1 a5be 753e 95be 4482 ff3d 4759 0cbc
00000030: 3239 dd3e 1cb8 c3be f2fc 113e efc1 55bb
00000040: 565a e83e efbd 8c3e 799f 88be c835 8cbd
00000050: 96c4 4b3e 125d 0a3f 5bc1 fb3e 1570 9dbd
00000060: 5a97 133c 3dcf 9b3e 59c9 a73e e47b acbe
00000070: 5719 ba3d 4aa0 1c3f 2cc7 64be 94e1 37bf
00000080: d453 593e 640a a43e a707 0cbf 27a6 9a3c
00000090: 6006 2d3f d3d8 513e c47f 843e 533e aebe
000000a0: e18d 54bf e818 f2bd e2b2 5dbe 1c61 1abf
000000b0: eae6 1f3e b793 37be ba84 95bf 6c14 c4be
000000c0: a814 ebbe 4b6d 273f d061 9dbf f83c 3fbf
000000d0: 88be 613e b0c5 ae3e 40f3 79bf 963c 733d
000000e0: e806 12bf f265 91bf 6716 843f 820c 2c3e
000000f0: b216 0e3e 976f febb df05 a03e 0db4 193f
00000100: 0535 a13f 1ecf a3bf 42a8 1ebf c789 673e
00000110: 8302 273f 7035 883f 00d2 14bf 0815 c13f
00000120: ab94 fa3e 8d37 4e3f fc5b 59be 2dc1 1ebf
00000130: f8bc 6f3f 7af9 703f 2523 003f 1be8 97bf
00000140: 5327 cd3e 94b8 fb3d 153a 43be a050 c93e
00000150: d181 983e fc5d 6f3f 7887 923b 2275 60bf
00000160: b14c 9cbf b168 61be 2c2d a6bf 6801 8abf
00000170: a344 7dbf 2eb6 35bf c5b5 86bf c64d 28bf
00000180: 99e1 c83e 613f 393e b2ff 9f3e 4723 803e
00000190: ea8b 883e ec53 c33f 4c1b 3abf 1d01 f53d
000001a0: d711 bdbe 39c5 20bd 8d3a 2bbf 5b41 053e
000001b0: 12d2 c4bd 2d94 f13e 288f 6c3e 02c1 f2be
000001c0: e891 4f3f ba9e 12bf 43cb 1b3f 7668 043d
000001d0: 16f9 253f 8dbe 033f fcd7 7dbe 7a85 6b3f
000001e0: 1c17 133f 6947 a13f 08e7 b6bf 64ef fdbd
000001f0: 48be 933e 4b13 f63c 70ff d93e e0fa 1ebf
00000200: c946 533e f192 adbe 4adc d63e 083e cf3e
00000210: 01b8 a83f 1fdf 493e a046 3abd 81e5 c3be
00000220: 249a 60bf a05a 17be b0d2 3c3f 177c a7be
00000230: f479 dcbe 8cff aebe b812 efbe b948 68bc
00000240: a7ad 6d3f 7694 ff3f 4005 b3bf ea59 7fbf
00000250: 7f80 39be 6417 37bf 4f06 babd bceb 01bf
00000260: 736d 213e aa22 d0bf bcc4 153e 158d 743e
00000270: 7f2d 783f 7476 97be 68a1 a6be 2ac9 b73f
00000280: 97ad ebbe 8e8b 11bf be5f 0ac0 7580 6d3f
00000290: a1d6 62be 081f 633e bbbd ff3e 8a3b f13e
000002a0: e3da 4e3e 63d3 14be 20fd 653e f717 8cbf
000002b0: e1c4 02bf a055 193f 83ab 813e e9db 98be
000002c0: 36d8 31be 61be 393f 15c8 78bf 6167 bfbe
000002d0: c055 663e a0db abbe 5a08 653f dd12 2bbf
000002e0: 721a 623e d809 68be 20fe 0cbe 0084 b2bf
000002f0: 639f 4a3e cacd 5ebf e327 05c0 8103 3fbf
00000300: be91 8e3f 110c 453f 9ebb ecbe 5316 c3bf
00000310: f98e d33f 88e5 be3f ef3d 3ebe 78df 12c0
00000320: 7cf2 7b3f e00d 293f 84ef fe3f cfda 4cbf
00000330: e654 d13f 8642 673f 1cf9 21c0 7cee fe3f
00000340: 64c1 dcbe 2d46 b0bf ba5e 5fbf 4744 0840
00000350: 0da0 8e3f c1b1 143f a5e0 d6bf 7bfe c63e
00000360: d748 593e 1b89 52bd 663f bdbd 2b29 cebf
00000370: 309d dbbf 2361 423f 0cc7 2b3f a74a b1bd
00000380: 7f34 0240 e590 4ebf fac8 8d3f 434c dd3e
00000390: bf6e 0fbf 9e60 e1bc be26 1140 87ac edbf
000003a0: 8f4f 06be 1977 bdbf c7a6 ce3f 908c eebf
000003b0: 74df 50bf ed46 04c0 2a1c 38bf 7143 f0bf
000003c0: 6ffa 0c3f 4dbc 833d 8b1a 3c3e 009c 10be
000003d0: 73d9 933f 2288 233f 0b59 06bf b552 31be
000003e0: 3185 15be 5634 753f 1aef 963f 2a8b 85bf
000003f0: da24 dd3d 3964 5b3f 040e babd 6768 083e
-0.064638734 0.7142354 -0.6332699 -0.83659893 -0.3151339 -0.94122654 -0.31104323 -0.11924441
-0.3236229 -0.29149213 0.12476018 -0.008566207 0.432077 -0.38226402 0.14256647 -0.0032616814
0.4538142 0.27488658 -0.26684168 -0.068461955 0.1989921 0.54048264 0.49170956 -0.076873936
0.009008253 0.30431548 0.32770804 -0.3368827 0.090868644 0.6118208 -0.22341603 -0.7182858
0.21223384 0.32039177 -0.54699177 0.018878056 0.6758785 0.20492868 0.25878727 -0.34031925
-0.8302899 -0.11821157 -0.2165027 -0.6030443 0.1561543 -0.17927442 -1.168113 -0.3829683
-0.45914197 0.6540114 -1.2295475 -0.74702406 0.22045338 0.341352 -0.97636795 0.05938395
-0.5704179 -1.1359236 1.0319337 0.16801646 0.13875845 -0.0077647674 0.3125448 0.6004036
1.2594305 -1.2797582 -0.6197549 0.22611152 0.6523821 1.0641308 -0.58132935 1.5084543
0.4894155 0.80553514 -0.21226496 -0.6201351 0.9364772 0.9413067 0.50053626 -1.1867708
0.40069064 0.12291065 -0.19065125 0.39319324 0.29786542 0.93502784 0.0044717155 -0.8767873
-1.2210904 -0.22012593 -1.2982535 -1.0781679 -0.98932856 -0.7098111 -1.0524222 -0.6574367
0.39234617 0.18090583 0.31249768 0.25026914 0.26669246 1.5259986 -0.726979 0.11963103
-0.36927673 -0.039250586 -0.66886216 0.13013212 -0.0961038 0.47183362 0.23101485 -0.47412878
0.8108201 -0.5727345 0.6085703 0.032326184 0.648332 0.5146263 -0.24789423 0.92000544
0.5745714 1.2599918 -1.4289255 -0.12399176 0.2885611 0.030038496 0.42577696 -0.62101555
0.20632471 -0.3390117 0.41964942 0.40477014 1.3181154 0.1971402 -0.04547751 -0.38261035
-0.877352 -0.14780664 0.73758984 -0.3271186 -0.43061793 -0.34179342 -0.4669397 -0.014177495
0.928431 1.9967182 -1.3985977 -0.9974657 -0.18115424 -0.71520066 -0.090832345 -0.5075033
0.15764408 -1.6260579 0.1462583 0.23881944 0.9694442 -0.2958256 -0.32545018 1.4358265
-0.46030876 -0.5685357 -2.1620936 0.92774135 -0.22152187 0.22179806 0.4994944 0.47115737
0.20200686 -0.14533763 0.22459841 -1.0944813 -0.51081663 0.5989628 0.25326166 -0.29855278
-0.17367634 0.7255612 -0.971803 -0.3738356 0.22493649 -0.33565998 0.8946587 -0.6682566
0.220804 -0.22660005 -0.13768816 -1.3946533 0.19787364 -0.8703276 -2.0805595 -0.7461472
1.1138227 0.76971537 -0.4623689 -1.5241188 1.6528007 1.4913797 -0.18578313 -2.2948895
0.98416877 0.66036797 1.9916844 -0.80021375 1.6354034 0.9033588 -2.5308294 1.991653
-0.43116295 -1.3771416 -0.87253916 2.1291673 1.1142594 0.5808373 -1.6787306 0.38866028
0.21219192 -0.051400285 -0.09240608 -1.6106313 -1.7157345 0.7592947 0.67100596 -0.08656817
2.034454 -0.8068984 1.1076958 0.43222246 -0.5602836 -0.027511891 2.2679896 -1.8568276
-0.13116287 -1.4801971 1.6144646 -1.8636646 -0.8159096 -2.066829 -0.71917975 -1.8770581
0.5506963 0.064324 0.183695 -0.1412201 1.1550735 0.638796 -0.5247962 -0.17316706
-0.1460159 0.95782983 1.1791718 -1.0433095 0.107980445 0.856998 -0.090847045 0.13321076

sequential/separable_conv2d_3/separable_conv2d f4 [96, 1, 1, 48]
00000000: 55f4 1d3d 1b63 12be fd4b 093d 2bbd a4bb
00000010: 9e13 3ebc 9439 913a 2a5f 78bd 5720 89bd
00000020: 0e00 e53c f1b5 f1bc 2b1a cc3c 5095 08bc
00000030: cbb4 123c 9867 d73d ab53 af3d 7512 f0bc
00000040: 34d4 003d da86 093d 8cc7 e13d e279 eabc
00000050: 7e91 1abe 6ee8 cdbc 3238 1cbc f34a 133d
00000060: 4c0f 96b9 b9ea 2d3d 8708 a33d 4caf 91bc
00000070: 3f5a a63d 14db 91bd 9588 553d 42e4 173d
00000080: 241a b83a c332 d7bd 7fb0 253c f1fd d53c
00000090: 7bc9 ddbd d431 06bc b08c 483c b0de 2b3d
000000a0: 80ae 273e 2a6a a33c cdb4 ecbc a746 57bc
000000b0: f600 033d 6a8d 503d a3bb 1abe 370f ebbd
000000c0: 4430 6d3d 6529 bd3c eb2a a33c ba46 0a3e
000000d0: b7b2 823c 5e15 963a daff 4a3c 85fc 803c
000000e0: 29d3 433d c86e e5bc 6d4f e53c 961a ceba
000000f0: ca03 033d a548 c43d 2c86 733d 024e 65be
00000100: 2c40 30bc d14e 2abd 57b4 4b3e cd9e b93d
00000110: f048 bbbd 3e17 3bbd 34a9 9e3b d52e 6a3a
00000120: 7edf f03d 9612 e8bd 0ecd e0bb 912d b9bb
00000130: 372b 8e3d f2dd 9a3d d680 c9bc 373b 85bd
00000140: 2a71 debd 941b 13bc 29c0 e43c a513 0dbc
00000150: fefc 85bd 713e d53d b060 983b 49c3 413e
00000160: a809 c3bd 85cd 7e3d 3c92 393d 4e8f 28bd
00000170: ba20 7d3d 538b 2d3d e944 493c d18a 01bc
00000180: b9e5 313d 7f52 963c 7d3c 473d 74b5 5f3b
00000190: 810e 24be 0c57 30bc 15eb 2e3b d592 413e
000001a0: e3ed 51bd b84a 4abc 2e79 61bc ffc5 2e3e
000001b0: 14be 2bbc 413b cdbd 214f 893c d652 41bc
000001c0: 7762 343d 6461 12bd 3b49 843d d8cd 73be
000001d0: 5b90 6e3d 6744 fb3c abca 08bd 7984 263c
000001e0: 5558 073d 42be e53b e02c 67bd c81b 453d
000001f0: 183a 363d 41b1 983d 5606 35be 36f2 a3bd
00000200: 2b5a d4ba 97c4 963a b0d8 ac3d a574 9f3c
00000210: 957a 3a3c bcff 503b be04 91bd fa20 57bc
00000220: 4931 82bd a26d a83d 1f25 893d 4463 4e3e
00000230: 9f10 92bb af44 ec3c 1f25 5d3d 2d78 433d
00000240: ddfb bebd 9429 3c3d 0297 b23d bc1d 5d3b
00000250: 14d0 4dbc 7d5c 09bd eb7d dcbc 0bee 113d
00000260: 4b3a 2abd 310a abbd a53c 19bd 984b ba3c
00000270: 841b 643c 025a 783c e74c cbbd c5db e03a
00000280: 8f32 60be 3328 0a3c 5ff7 893c 8f90 813d
00000290: 4389 23bd acd4 abbd 19b0 9c3d 59c8 3b3d
000002a0: e606 c8bc 4c3d 253d 92ca e4bd 3911 11bb
000002b0: 83f5 82bc 7e70 a0bc 378e 21bd 0ed7 1cbd
000002c0: 44e3 523d f240 e2bc 36ca ca3d 4c08 6cbc
000002d0: 2c61 0bbc 7b35 0cbd 9a36 c3bc bc30 67bc
000002e0: 7469 68bb 1955 a7bc 70dd 09bd 891c a4bc
000002f0: 88ea 593d 40e0 d13a 7c51 dabd b261 113d
00000300: ade0 7e3d 43de ebbd ec98 e03d f52e 413d
00000310: 1d6f 043c 52e9 a43c effe e53d 1176 9b3d
00000320: a2e8 65bc 43e0 693d 576f 58bd 00cd 37bc
00000330: dffb 88bd 19b7 27bd f4f9 2ebb f20c 223d
00000340: a1ab 9e3d c119 813d d347 8fbd 4187 cabd
00000350: 35e8 8e3d f741 893d 2003 b33b 60e2 8b3c
00000360: 9494 e3bc 0df2 c5bc d2ed 2bbd 44b8 713c
00000370: 6fa1 b73c ab20 cfbc 5437 eb3c 41ef c13b
00000380: a684 21bc db31 06bd 70a7 0f3d eae9 ec3c
00000390: 2637 d93d b55e 1cbc 1ae3 96bd a898 c23d
000003a0: 387e 883d 36b4 82bd 4bfa 11bc ce77 3b3e
000003b0: 8965 02be 8a29 e0bb 7916 f2ba 977c 533d
000003c0: 4c15 96bd de90 0d3d ed74 8c3d 684a 0dbd
000003d0: c7c2 a0bc 7af0 ffbb a987 0e3c 492b 193c
000003e0: 22c6 0fbc d8ea d33c ca26 7fbe 13b1 c1bc
000003f0: 85a7 96bc de85 6e3b 7b26 223e 375d 82bb
0.03856309 -0.14295618 0.033519734 -0.0050274334 -0.011601357 0.0011079782 -0.06063763 -0.066956215
0.027954128 -0.029505702 0.024914822 -0.00833638 0.008954237 0.10517806 0.0856088 -0.029305676
0.031452373 0.03357587 0.11024389 -0.028622571 -0.15094563 -0.025135245 -0.009534882 0.03596015
-0.00028621627 0.042460177 0.07960611 -0.017783783 0.08122682 -0.07121864 0.052132208 0.037082918
0.0014045876 -0.10507729 0.010112881 0.026122065 -0.10829445 -0.008190591 0.012240574 0.04196042
0.1637516 0.019948084 -0.028894806 -0.013139403 0.03198334 0.050916113 -0.1511064 -0.114775114
0.057907358 0.023091028 0.019917926 0.13503543 0.015954359 0.001145046 0.012390101 0.01574541
0.0478088 -0.028006926 0.027991975 -0.0015724476 0.031986035 0.09584168 0.05945413 -0.22393039
-0.010757487 -0.04157907 0.19893013 0.09063492 -0.09144771 -0.045676462 0.004841948 0.000893337
0.11761378 -0.1133167 -0.006860382 -0.005651184 0.06941836 0.07561864 -0.024597567 -0.06505435
-0.10861428 -0.008978743 0.02792366 -0.008610641 -0.06542395 0.104123004 0.004650198 0.18922152
-0.09523326 0.062207717 0.045305476 -0.04115229 0.06179879 0.042369198 0.012284496 -0.007906632
0.04343197 0.018349884 0.04864167 0.0034135254 -0.16021158 -0.010762941 0.0026690413 0.18903668
-0.051252257 -0.012346916 -0.013761802 0.17067717 -0.01048233 -0.100210674 0.016761364 -0.011799535
0.044039216 -0.03573741 0.0645928 -0.23808992 0.058243137 0.030672265 -0.033396404 0.01016342
0.033043224 0.007011206 -0.05643928 0.048122197 0.044488996 0.074556835 -0.17678198 -0.080051824
-0.0016201189 0.001150268 0.08439767 0.0194648 0.011381765 0.003189071 -0.070809826 -0.013130421
-0.06357057 0.08224036 0.066965334 0.20155054 -0.004457548 0.028841345 0.05399048 0.04772203
-0.09325383 0.04593809 0.08720209 0.0033739647 -0.012561817 -0.03353547 -0.026915511 0.035627406
-0.0415595 -0.08351553 -0.03741135 0.022741124 0.013922576 0.015158178 -0.09926777 0.001715534
-0.21894287 0.008432436 0.016841589 0.063264005 -0.039925825 -0.08390173 0.076507755 0.045845363
-0.024417352 0.04034166 -0.1117145 -0.002213551 -0.01598621 -0.01958489 -0.039442267 -0.03829103
0.05148627 -0.027618859 0.0990185 -0.014406275 -0.008507054 -0.03423069 -0.023829747 -0.01411074
-0.0035463246 -0.02042632 -0.033658445 -0.020033138 0.053202182 0.0016012266 -0.10660073 0.03549356
0.062225986 -0.115170024 0.109666675 0.047163922 0.008083132 0.020130787 0.11230265 0.07590879
-0.014032515 0.05709864 -0.052840557 -0.011218309 -0.066886656 -0.0409461 -0.0026699277 0.039563127
0.07747579 0.0630374 -0.06996121 -0.09889079 0.06977884 0.06702035 0.005463019 0.017075717
-0.027780809 -0.02416327 -0.04197485 0.014753405 0.022415845 -0.025284132 0.028712906 0.005918414
-0.009858286 -0.03276239 0.03507179 0.028920133 0.10606222 -0.009544064 -0.07367535 0.09501773
0.06664699 -0.06382029 -0.008909772 0.1830742 -0.12734045 -0.0068408893 -0.0018469832 0.05163249
-0.07328281 0.034561984 0.06858239 -0.034494787 -0.019624127 -0.0078106495 0.008699336 0.009348699
-0.008775266 0.025868818 -0.2491714 -0.023644006 -0.018390426 0.003639571 0.15834992 -0.003978397

sequential/separable_conv2d_4/separable_conv2d/depthwise f4 [1, 3, 3, 96]
00000000: c15a 083f 497e c5bf 01e5 7cbf 4b05 103f
00000010: 6d77 833f c031 2abf 5921 52be e768 bbbe
00000020: e0f1 b8bf 77da 02bf 9b47 5abf 44d7 58be
00000030: f309 b6bd 552c 32bf 8840 0dbf c5a4 cebf
00000040: e16e 27bf 9dcf 5a3e 7293 d5bf 431a 90be
00000050: c0e1 583e ca82 4abe a679 833f d631 9fbf
00000060: 7c0e 1e3f fb70 6b3f c0ec 83bf 1e19 83bf
00000070: 9971 963e 5f68 7bbe 2967 043f 017b 7d3f
00000080: 326f 9abf 53e0 00bf b366 fc3d 1b25 edbe
00000090: 757b f93e 97d7 d33f 8234 973e 54fb 51bf
000000a0: a7dc 12bf 9a57 1c3f 0b91 77bf 4cc0 a9be
000000b0: 1428 12bf 7264 bc3e d373 853f 19e1 febe
000000c0: 94f2 813f 5771 a73f 6564 bbbe b293 cbbd
000000d0: a4d9 e03f c8a5 d5be 1d25 87bf a827 3b3f
000000e0: fac5 4d3f f293 b13e ed2c 243f 70be 22bf
000000f0: 5ac8 8ebf 160f 6abf 7705 a43f c325 35bf
00000100: 95de dcbe 1e6b 95bd 713b c1be bac4 0b3f
00000110: 93b7 623f 7cf8 543f 964d 35be e6f2 b43f
00000120: 1324 8c3f 069c a23f 3c90 afbe 2a0b e7bb
00000130: a7d7 08be f7b8 0c3e a833 f83d f609 5ebe
00000140: 7ded 5ebf 24e1 343f a585 173f 1ebe 693f
00000150: f20f afbd fbdd 0c3f 95ed 753f 9220 38bf
00000160: 0794 dfbe 6d9a 92be 5d5a 23be e208 08bf
00000170: 2d1e 86be ed64 a33e 6085 87bf 4828 5c3e
00000180: 36d0 cebf 7614 4fbf dad3 6ebf bad0 6d3f
00000190: 8cea 5fbf 2e62 50bf 2e0a d7be 3ffc 3e3f
000001a0: 7929 ccbf 35be 593f fdad debf 6490 3ebe
000001b0: e0aa 863f 38da f13d f612 38bf fa46 0ebf
000001c0: 22eb eebe 4183 ab3f b259 61bf 5c80 68bf
000001d0: 3b24 80be e786 36bf c205 7c3f e9d3 aebd
000001e0: 06ad 983f 024b fabc 8922 28bf 8653 e7be
000001f0: 786c 2e3f ab1e 1a3f 678f 613f a53a ce3e
00000200: 72ee 1abf 8f06 9fbe 168b 4abf 1f7c c33e
00000210: 05cc 5f3e 3d8d e93d 82e2 36bf 679e 473e
00000220: 05fc 853e 0b9a 14bf 2922 ecbe b215 62be
00000230: 6d0f 7d3f 805a 9d3f a12d 343f 8248 1ebe
00000240: 523e 30be 5bf3 e0be 9c01 5f3f 4e79 a63e
00000250: d2a6 313f 34ea 5ebf c345 7e3e 65bf 24bd
00000260: 80b9 ebbe a8f8 0abd 6415 133e 3205 11bf
00000270: 7d94 e6be 7cb7 17bf 52d2 a63f a435 073e
00000280: fc89 893f 7658 903f 6aa3 93bf babc d0bf
00000290: b61d 97bd a21f 973f c251 2e3f 7f16 45bb
000002a0: 0928 bb3f cb2d a73e bbf4 b83d 418d 8a3e
000002b0: 9f2a a2bd 531f b63e e90e b6bf d68c 0b3e
000002c0: 23da 7ebf 0eaf d83f 88be 13be 1c04 863f
000002d0: 31ea 96bf c755 e13c fbf3 80be e79b 55bf
000002e0: 7575 04bf 7ed2 05be 8691 b0bd 5210 83bf
000002f0: 932d 1ebf 189a 3b3f ed46 5fbe f9af 62bf
00000300: e552 f63c 36b3 79bd eeac 7dbf ffbf 903e
00000310: 4f8c 81bf a859 29bf 7859 273e 39e3 92be
00000320: 92f2 31bf 297a df3e 270c eebe a9d2 863f
00000330: 221a 263f 6788 fabd b686 3fbf 3294 783f
00000340: 2442 583f f5e7 993e d9b9 8bbe adcf d0bf
00000350: c64d 74bf 8e20 06bf 15b0 3ebe 255d 993e
00000360: c389 473f 2a8e 1cbd 80c5 09be 75da 9fbe
00000370: c8db 3b3f 9608 933e e37e 0d3f 1ccb 983f
00000380: 34b9 a7be ecb3 82bf 4988 20bf cb9b 943e
00000390: a73f b9bf 1241 a5bf edbf 77bf d8eb a13f
000003a0: 5266 6abe 0c9e c9be 1d2b ac3e 363f 923e
000003b0: 7876 2d3f bffe 6bbf 47e1 803f e932 b13e
000003c0: 9fb9 70bf 6f83 31bf 4ee6 373f 523e f33e
000003d0: 2062 413e bfac e4bf c09c c83e 7365 21bf
000003e0: 11fb 7bbf 4512 823e 4a7d 023f 6ac0 c0bd
000003f0: 173d a43e 2dfa 80be 84f2 893e 6d5f 8c3f
0.5326348 -1.5429164 -0.9878693 0.56258076 1.0270821 -0.6648216 -0.20520534 -0.36603472
-1.4448814 -0.511146 -0.8526551 -0.21175867 -0.088886164 -0.69598895 -0.5517659 -1.6144034
-0.6540356 0.2136826 -1.6685622 -0.28145036 0.21179867 -0.19776455 1.0271499 -1.2437084
0.6174085 0.9196927 -1.0306625 -1.024204 0.29383543 -0.24551533 0.5171991 0.99015814
-1.2065184 -0.5034229 0.12324276 -0.46317372 0.48727003 1.6550168 0.29532248 -0.8202412
-0.5736794 0.6107117 -0.96705693 -0.33154523 -0.57092404 0.36795384 1.0425972 -0.4978111
1.0152154 1.3081464 -0.36600032 -0.0994028 1.7566419 -0.41728044 -1.0558201 0.73107386
0.80380213 0.34683186 0.6413105 -0.63571835 -1.1154892 -0.9142927 1.2814168 -0.70760745
-0.43138567 -0.072958216 -0.37740663 0.54597056 0.8856136 0.8319166 -0.17705378 1.4136627
1.0948509 1.2703865 -0.3428973 -0.0070508914 -0.13363515 0.13742433 0.12119228 -0.21683487
-0.8708113 0.7065604 0.591883 0.9130572 -0.08547963 0.55026215 0.96065646 -0.719247
-0.43667623 -0.28633443 -0.1595244 -0.53138554 -0.26194897 0.31912938 -1.0587578 0.21499741
-1.6157291 -0.80890596 -0.9329201 0.92896616 -0.87467265 -0.8139981 -0.41999954 0.74603647
-1.5950156 0.8505586 -1.7396847 -0.18609768 1.0520897 0.118092 -0.7190393 -0.5557705
-0.46663767 1.339943 -0.8802749 -0.9082086 -0.25027642 -0.71299595 0.98446286 -0.085365124
1.1927803 -0.030553345 -0.65677696 -0.4518091 0.6813426 0.60203046 0.8810944 0.40279117
-0.6052009 -0.3105969 -0.7911848 0.38180634 0.21855171 0.11403892 -0.71439373 0.1949402
0.26168838 -0.5804755 -0.46119812 -0.22078589 0.9885166 1.2293243 0.70382124 -0.15457347
-0.17211273 -0.43935665 0.8711183 0.32514423 0.6939517 -0.87076116 0.248313 -0.04022159
-0.46039963 -0.033928543 0.14363629 -0.5664855 -0.45035163 -0.5926435 1.3032935 0.13204056
1.0745234 1.1276996 -1.1534245 -1.6307595 -0.07378714 1.1806529 0.680935 -0.0030073223
1.4621593 0.32652125 0.09031054 0.27060893 -0.079182856 0.35570773 -1.42233 0.13627943
-0.995516 1.6928422 -0.1442815 1.0470004 -1.179022 0.027506722 -0.25186142 -0.83441013
-0.51741725 -0.13068578 -0.086215064 -1.0239356 -0.6178829 0.73282003 -0.218044 -0.8854976
0.030068824 -0.060961924 -0.99091995 0.2827148 -1.0120944 -0.6615243 0.16342723 -0.28688982
-0.6951076 0.43647888 -0.46493647 1.0533038 0.64883626 -0.12233048 -0.7481493 0.9710113
0.8447592 0.30059782 -0.27290228 -1.6313378 -0.9543117 -0.52393425 -0.18621857 0.29953876
0.7794458 -0.038221516 -0.13454247 -0.31221357 0.73382235 0.28717488 0.5527174 1.1936984
-0.32758486 -1.0211158 -0.62707955 0.2902511 -1.447255 -1.2910483 -0.9677723 1.2650099
-0.22890595 -0.39378393 0.33626643 0.2856385 0.67758894 -0.92185587 1.0068749 0.34609154
-0.94033235 -0.69341177 0.7183579 0.47508484 0.18885088 -1.7865218 0.3918209 -0.63045424
-0.9842997 0.25404564 0.50972426 -0.094117 0.32077858 -0.2519087 0.26942837 1.0966622
